model.pkl (torch, 419463 bytes, 11 tensors)

user_embedding f4 [3000, 16]
000000 33 af 70 ba 09 c0 68 3a f4 fa 0c 38 25 17 c1 ba
       -0.000918138 0.0008878713 3.361232e-05 -0.0014731629
000010 0a 07 47 b9 fa a6 8f b9 b7 6e 36 3b f3 2a 9a 37
       -0.00018980741 -0.00027399493 0.0027836987 1.837823e-05
000020 8d 23 c2 3b d3 ab 86 ba ab 40 71 ba 35 e5 aa 3a
       0.005924648 -0.0010274596 -0.00092030567 0.001303828
000030 98 78 05 ba ff 6e ca 39 5c 3f 87 39 bf 78 da b8
       -0.0005091517 0.0003861114 0.00025796413 -0.00010417541
000040 7c 98 1c 39 e5 a9 2d b9 df 12 98 37 e4 ab 63 39
       0.00014934124 -0.00016561856 1.81286e-05 0.00021712441
000050 a8 b0 22 38 1a a6 c4 b7 35 5b a4 b9 99 c9 79 b7
       3.8788334e-05 -2.3442368e-05 -0.00031348472 -1.4888495e-05
000060 76 f8 43 ba 7f 28 52 35 7a 3c 2c 39 5e 41 2c b8
       -0.0007475683 7.8290026e-07 0.00016425728 -4.1068874e-05
000070 f9 f6 5f 38 5e 98 1f b9 f7 fd 8f ba 2e 99 d9 37
       5.3397354e-05 -0.00015220183 -0.0010985722 2.5939746e-05
000080 9e ad d7 39 a2 7d b0 39 e6 32 bc b6 34 3e 11 ba
       0.0004113735 0.0003366294 -5.608762e-06 -0.000554058
000090 a9 df ba b6 a3 84 2c b8 72 13 93 3a 51 9e 04 38
       -5.5692694e-06 -4.1131523e-05 0.0011221005 3.1618696e-05
0000a0 24 d6 06 bc 7d 1f e7 39 db dd 30 38 40 b9 80 39
       -0.008229766 0.00044083214 4.216829e-05 0.00024552085
0000b0 03 0c 5d b9 2e fc 22 39 c0 39 e7 bb 33 ff d7 b7
       -0.00021080677 0.00015543468 -0.007056445 -2.5748834e-05
0000c0 90 61 50 b8 8f db 8f 39 bf 8d 8d 33 65 ce 90 38
       -4.9681927e-05 0.0002743867 6.5916076e-08 6.904899e-05
0000d0 09 84 fb b7 0e 83 86 38 7e 19 d2 b9 71 8b 18 37
       -2.9983015e-05 6.414029e-05 -0.00040073314 9.092372e-06
0000e0 82 55 f6 b8 47 31 52 b7 74 30 9f 38 5e 18 6a 39
       -0.00011746121 -1.2528449e-05 7.590736e-05 0.00022325056
0000f0 dc f1 36 b8 f6 11 fd 38 6d ba 4c 3a 5e 5b c8 b7
       -4.361743e-05 0.000120673256 0.0007809762 -2.3884404e-05
000100 63 19 8e 39 8d 33 58 b8 15 96 e3 b4 e6 9e ad 38
       0.00027103265 -5.1546423e-05 -4.2391244e-07 8.27888e-05
000110 fc 30 17 37 15 5d 44 b6 1f 68 21 3b 35 82 38 b6
       9.011706e-06 -2.9260457e-06 0.0024628711 -2.7493927e-06
000120 a9 6e 33 3a 6b c2 56 39 95 5c a9 37 a9 b2 1d b9
       0.0006844798 0.00020481057 2.0189482e-05 -0.00015039243
000130 7c 95 e6 b8 d9 8f 74 38 6f 19 de 3a 22 ae fe 37
       -0.00010995098 5.8308102e-05 0.0016944836 3.0360246e-05
000140 26 b9 ec af f8 00 78 a7 d5 cb 8c af bc e0 2a b2
       -4.3059706e-10 -3.4417439e-15 -2.5610683e-10 -9.946401e-09
000150 4c 48 8d 37 c9 b0 c2 b4 c4 13 12 b5 92 77 c4 ac
       1.6842176e-05 -3.6263944e-07 -5.4418e-07 -5.58393e-12
000160 87 18 39 39 28 d4 28 30 cb 86 a0 b2 f7 00 a3 b1
       0.00017652112 6.1419536e-10 -1.8687748e-08 -4.744034e-09
000170 75 1f 30 b8 e1 8c 03 b3 36 5f 05 ac ac b5 65 2b
       -4.1990967e-05 -3.0628943e-08 -1.895329e-12 8.1609264e-13
000180 09 d1 35 b8 38 4c 79 b9 38 2f 9a 33 0b a7 d1 38
       -4.3348442e-05 -0.00023774884 7.179773e-08 9.997011e-05
000190 83 02 3d b7 1c cf 9d b8 37 68 63 38 ec 64 9b 38
       -1.1265863e-05 -7.5249205e-05 5.4218075e-05 7.409774e-05
0001a0 fb 58 0f 39 cc 82 1a 38 36 1b 24 b9 ec 9c 98 38
       0.0001367069 3.6838275e-05 -0.00015650396 7.277154e-05
0001b0 58 04 64 b9 aa d4 81 37 e7 8d 97 b8 33 60 5a 36
       -0.00021745393 1.5477028e-05 -7.2266725e-05 3.2540527e-06
0001c0 74 8e d1 b7 49 02 26 b8 33 b0 d6 b5 73 51 b7 39
       -2.4981076e-05 -3.9579612e-05 -1.5995523e-06 0.00034965164
0001d0 48 9d 05 39 c4 98 80 37 6b ae 8a ba 1b ac 04 38
       0.0001274246 1.5329926e-05 -0.0010580545 3.1631538e-05
0001e0 44 e9 6d ba fa 1d e7 b8 ee c8 c9 b7 dd b7 97 b9
       -0.0009075592 -0.00011020522 -2.4054632e-05 -0.00028937953
0001f0 99 90 82 b8 41 84 0b b9 a3 76 74 ba e1 dd 03 39
       -6.2258165e-05 -0.00013305341 -0.00093255396 0.0001257579
000200 12 28 b5 b9 2f d3 9e 39 7a f4 26 b6 02 b1 55 b7
       -0.00034552865 0.00030293452 -2.4878232e-06 -1.2737002e-05
000210 bc 57 84 36 df 9f c3 b6 c2 c1 ce b8 38 96 14 36
       3.94412e-06 -5.8300643e-06 -9.858936e-05 2.2141157e-06
000220 4d 0f 61 37 dd fc af b9 46 ce 8c b9 75 5d e6 b7
       1.3414608e-05 -0.00033567 -0.00026856567 -2.7461656e-05
000230 a4 93 7c 38 3f 9b 01 b9 e2 d7 9b b8 71 31 3c b7
       6.0218983e-05 -0.00012360232 -7.431187e-05 -1.1217185e-05
000240 d3 70 37 3a 2d 02 73 39 64 a4 91 b8 fe 3f 00 b9
       0.0006997708 0.00023175096 -6.944759e-05 -0.0001223087
000250 86 dc 43 b8 aa de d8 37 ac 7a 60 bb fb 1a 96 b7
       -4.6697e-05 2.5852893e-05 -0.0034252806 -1.7893957e-05
000260 23 44 05 bb 38 2b 3a 3a 4f 34 7c b9 01 a3 0f b8
       -0.0020334802 0.0007101777 -0.00024052079 -3.4245666e-05
000270 22 a4 3d b8 aa cf 67 38 86 b6 04 bb 16 70 6e b8
       -4.5213972e-05 5.5268094e-05 -0.0020250394 -5.684801e-05
000280 ce 1f eb 39 b2 3f 1c 3a 78 de 87 37 a9 9d 9f ba
       0.0004484639 0.0005960419 1.619685e-05 -0.0012177724
000290 41 52 1a b8 72 ea 50 b9 08 2f 8b 3b 0f 84 fb 36
       -3.6793066e-05 -0.00019923763 0.00424755 7.4957566e-06
0002a0 a0 ef 67 3b 57 a7 19 3a f8 87 f2 b9 f9 39 4d 3a
       0.003539063 0.00058614224 -0.00046259142 0.0007828768
0002b0 9d 9a aa 39 60 da 02 3a 74 47 e8 3b 48 00 12 b9
       0.00032540123 0.0004991647 0.007088596 -0.0001392375
0002c0 88 9f 18 ba cc d0 61 39 fe af 8c 38 6d 3f ea b9
       -0.0005822112 0.00021535455 6.708501e-05 -0.00044679214
0002d0 01 4c e3 37 57 95 a2 b8 30 ca bd 3a c0 cf 94 37
       2.70959e-05 -7.752579e-05 0.0014479812 1.7739716e-05
0002e0 ab 68 a4 3a b0 06 a0 b9 78 9b 76 b9 9f 57 ae 39
       0.00125434 -0.0003052256 -0.00023518305 0.0003325315
0002f0 d2 51 06 39 78 a5 34 39 d2 b5 cb 39 e4 79 82 b8
       0.00012809716 0.0001722778 0.00038854644 -6.221587e-05
000300 a0 d6 72 ba 8a c3 69 b8 1d 67 56 37 d0 53 b8 39
       -0.0009263549 -5.573364e-05 1.2779402e-05 0.0003515766
000310 bc 9a d6 38 e8 8d d1 b8 f4 10 25 bb bb da e7 b5
       0.00010233137 -9.992329e-05 -0.0025187107 -1.72745e-06
000320 ed 98 c3 ba 8d f5 5c ba 71 bf 55 b7 74 95 d5 36
       -0.0014922895 -0.0008428924 -1.2740363e-05 6.3652933e-06
000330 63 89 da 38 37 01 6f b9 64 58 e2 ba 83 8e 6d b5
       0.0001042064 -0.00022793269 -0.0017268774 -8.849676e-07
000340 09 1f 2e 37 b6 5d 78 b8 b8 5e 08 b7 37 4c 44 39
       1.0378434e-05 -5.9215083e-05 -8.128285e-06 0.00018720409
000350 64 dc a4 37 23 74 09 38 e7 00 ac b9 68 e4 c9 b6
       1.965295e-05 3.2771506e-05 -0.0003280707 -6.016857e-06
000360 d5 78 7e b9 35 ba d9 b8 0a d9 e9 38 fb af bd b8
       -0.00024268341 -0.0001038205 0.000111507325 -9.045001e-05
000370 92 cc 0e b9 60 26 a0 b8 b0 02 ce 3a 18 bd ce 37
       -0.00013618384 -7.6365424e-05 0.0015717354 2.4645167e-05
000380 eb 00 4c 36 74 48 61 39 5a 92 bd b1 41 42 e7 38
       3.0398903e-06 0.00021484663 -5.517262e-09 0.00011027279
000390 42 0b 81 2a 19 5e 81 b0 00 91 34 38 ac 7c 6a 38
       2.2922815e-13 -9.41273e-10 4.3050386e-05 5.5906057e-05
0003a0 26 aa e3 b3 c9 21 27 b8 6a 01 60 b3 60 0e 80 34
       -1.0601461e-07 -3.9847368e-05 -5.215535e-08 2.3852317e-07
0003b0 f5 2d 6d b7 e9 00 d0 37 d2 7a a7 b2 fe a6 47 30
       -1.4137001e-05 2.4795956e-05 -1.9497211e-08 7.263309e-10
0003c0 6d 5a 17 b8 78 f5 ce b7 35 3f 84 b7 53 ee ca 36
       -3.608542e-05 -2.4671419e-05 -1.576506e-05 6.0478137e-06
0003d0 47 cd a7 38 19 43 2b 38 99 1c df bb eb f9 63 b5
       8.0014164e-05 4.0832067e-05 -0.006808829 -8.492777e-07
0003e0 f5 93 9d 3c 95 41 53 36 3b 54 c2 b7 6d 4a c5 b8
       0.01923559 3.1479624e-06 -2.3165825e-05 -9.407555e-05
0003f0 64 80 88 b8 79 b2 22 38 b6 e5 28 3c 2d 38 c3 b7
       -6.5089e-05 3.8790025e-05 0.010308674 -2.327197e-05

item_embedding f4 [3000, 16]
000000 c5 aa 4f b8 af 94 9d 38 c7 07 16 b9 ca 59 c8 b8
       -4.9511687e-05 7.514038e-05 -0.00014308012 -9.553468e-05
000010 5b 10 a1 b7 d8 1d 88 37 70 ed bc 3a 49 f3 3e 35
       -1.9200312e-05 1.622636e-05 0.0014414024 7.113454e-07
000020 9d 49 e8 38 7c 3b 28 b8 a4 62 28 b9 7c 16 d6 b7
       0.000110763336 -4.010972e-05 -0.00016058475 -2.5521258e-05
000030 c4 7b 19 b9 13 d9 84 b8 5a 4f 04 b8 1f dd 6f 38
       -0.00014637323 -6.334684e-05 -3.1545154e-05 5.7187975e-05
000040 1f b3 97 38 30 9e 9e 39 e9 78 38 ba 01 f3 0e b9
       7.233605e-05 0.00030253967 -0.000703706 -0.00013632701
000050 19 73 a9 b9 41 f8 93 39 33 7d 45 3b 8f 73 ef 36
       -0.00032319946 0.00028222988 0.003013444 7.136208e-06
000060 c7 8e 7f bb 6c 62 cd 38 2f ef 29 ba f1 5d a5 39
       -0.0038995014 9.793494e-05 -0.00064824795 0.00031541244
000070 d5 30 12 ba 5a a8 26 3a 34 49 90 b9 5e 3b f5 b9
       -0.00055767345 0.0006357484 -0.0002752036 -0.00046774274
000080 9d ce 8f 38 36 89 37 38 70 17 52 b9 39 96 92 38
       6.857256e-05 4.3758388e-05 -0.00020035892 6.989804e-05
000090 6e 19 8d 38 90 bb 37 38 ea 24 b6 b9 1a 44 54 b5
       6.7281406e-05 4.380528e-05 -0.00034741248 -7.9075255e-07
0000a0 b8 df d4 39 41 0f b3 37 ab 7d 81 b9 51 c6 56 39
       0.00040602474 2.1345566e-05 -0.00024698427 0.00020482509
0000b0 5c 17 73 b9 9e dd cd b8 8e d2 95 37 e1 dd f2 b7
       -0.00023182988 -9.816441e-05 1.7860231e-05 -2.8951968e-05
0000c0 3f 0c e0 b7 6e a1 fa b8 47 27 35 39 4e cc 03 39
       -2.6708583e-05 -0.000119509976 0.00017276137 0.00012569243
0000d0 c9 76 20 39 35 47 b6 b8 a1 26 34 3b e5 39 ce 35
       0.0001530304 -8.6916996e-05 0.0027488845 1.5365046e-06
0000e0 5c 3d 31 ba 61 ce 1a b7 be 93 93 39 66 56 3a b7
       -0.00067611574 -9.227167e-06 0.000281481 -1.110658e-05
0000f0 e8 9e 5b 39 e3 16 1c b9 57 38 c6 b8 f6 69 36 39
       0.00020944665 -0.00014885845 -9.45187e-05 0.00017396346
000100 6e 3c 8e b7 6d cb 1d b9 59 c1 6a 39 24 5a 87 38
       -1.6955859e-05 -0.00015048469 0.00022388007 6.4540916e-05
000110 88 91 eb 38 e8 5f a3 b8 84 82 c8 ba 70 b3 cb 36
       0.000112327805 -7.7903096e-05 -0.0015297686 6.0707607e-06
000120 c1 77 3d b9 f7 6c 9f b7 06 79 29 39 c7 b5 25 b8
       -0.00018069056 -1.9005018e-05 0.0001616218 -3.950836e-05
000130 ea 33 98 38 02 15 39 b9 e7 4b 8c 38 4d 08 ec 37
       7.2575946e-05 -0.00017650801 6.689858e-05 2.8137258e-05
000140 37 4e ca 36 54 a7 90 38 ad ae 46 39 b3 02 61 38
       6.0291745e-06 6.8976224e-05 0.00018947823 5.3646694e-05
000150 40 da 10 37 9a 1d 66 b8 f4 5b 3a bc f6 36 7e b7
       8.633884e-06 -5.486384e-05 -0.011374462 -1.5152376e-05
000160 1e 1c ef 3b da e9 73 37 e1 9f d9 b7 ed a1 86 b7
       0.007297053 1.45383765e-05 -2.5942865e-05 -1.6049447e-05
000170 36 41 b3 37 40 4d 42 b9 fd 15 cd 37 1f 70 28 38
       2.1368829e-05 -0.0001853006 2.4448143e-05 4.0158742e-05
000180 b6 65 0b bc 91 02 cc bb 7b 62 ad 3b 8c e2 d9 3b
       -0.0085081365 -0.006225892 0.005291281 0.006649321
000190 25 b4 f4 ba 61 b1 11 bb c8 4c dc 3d b9 e7 03 ba
       -0.001866941 -0.002223097 0.10756832 -0.0005031783
0001a0 81 49 c2 bd 8d f4 04 bc 30 0a 0e 3c 97 67 19 bc
       -0.09486676 -0.008114946 0.008669421 -0.009363077
0001b0 3e 88 ea 3b b6 b1 8c 3b 69 18 8d 3b a5 95 01 bb
       0.0071573546 0.0042936457 0.0043058884 -0.0019773033
0001c0 84 a9 5f b8 2f ee 8f b8 d1 90 9c 39 4a 1f 83 37
       -5.3325217e-05 -6.8631365e-05 0.00029862535 1.5630987e-05
0001d0 73 78 57 39 08 fa 15 b8 a6 35 d0 3b be de 14 37
       0.00020548869 -3.5757228e-05 0.0063540516 8.873349e-06
0001e0 32 6c 3c bb 1e 50 be b8 11 4e 5f 39 aa a8 4e b9
       -0.0028751013 -9.074829e-05 0.00021296019 -0.00019708523
0001f0 fa 5d f0 38 6e 05 89 b9 4f 61 51 39 f8 c8 69 39
       0.00011461596 -0.00026134722 0.00019968043 0.00022295478
000200 59 a6 18 37 22 46 f4 38 a7 9b 75 38 d5 95 9a 38
       9.098637e-06 0.0001164789 5.8557514e-05 7.3712006e-05
000210 cb ab 08 b9 10 f7 c1 38 05 d1 ef 3a 6c ff bc 36
       -0.00013033969 9.248976e-05 0.0018296546 5.6325716e-06
000220 38 3c 4d ba a1 74 ea 36 e6 d9 f5 b8 59 6c 35 b8
       -0.00078291027 6.987321e-06 -0.00011723097 -4.325467e-05
000230 ff 46 63 b9 ea 4f c1 38 fa ac f5 38 d2 97 ef b7
       -0.00021674855 9.217842e-05 0.0001171473 -2.8561717e-05
000240 7b 32 24 b6 9a 60 04 b9 9b 63 82 b8 5c 03 26 b8
       -2.4467288e-06 -0.00012624488 -6.217436e-05 -3.9580613e-05
000250 54 89 b7 38 03 22 c2 b7 7d 9b 43 39 a4 a8 0c b7
       8.751699e-05 -2.314244e-05 0.00018654573 -8.383915e-06
000260 ca d2 1c b7 30 8a 96 b6 72 dd 26 39 40 a5 8a b8
       -9.347403e-06 -4.4864355e-06 0.00015913488 -6.611133e-05
000270 10 b6 71 b8 c9 47 42 b8 d7 58 21 b7 31 cf b1 37
       -5.7628436e-05 -4.632006e-05 -9.617032e-06 2.1196525e-05
000280 42 f7 b5 37 88 1f 9b b8 2a 33 4b 38 87 a8 e1 b7
       2.169202e-05 -7.396849e-05 4.844662e-05 -2.6900567e-05
000290 48 2a 2b 38 4f 36 e1 b7 a4 6f c2 b9 f9 44 2b 33
       4.0808955e-05 -2.684738e-05 -0.00037085742 3.987677e-08
0002a0 e0 69 b6 38 a6 ad fc b7 b5 26 98 37 fd 25 bf b7
       8.698157e-05 -3.0121602e-05 1.8137836e-05 -2.2786664e-05
0002b0 c3 85 e0 38 73 39 2c b8 e1 a8 dc 36 59 48 0d 37
       0.000107060674 -4.10615e-05 6.576171e-06 8.4211e-06
0002c0 11 53 70 b8 14 48 1e b8 7a 11 ba 38 a0 39 c4 b7
       -5.729782e-05 -3.7737263e-05 8.8724264e-05 -2.3391854e-05
0002d0 bf 49 48 39 ea aa 67 b8 75 03 aa ba 16 4d 58 b6
       0.00019100959 -5.5233868e-05 -0.0012971001 -3.2231378e-06
0002e0 b6 36 bf 39 39 7a fa b7 ae e4 cb 38 0e ae 32 b9
       0.00036471122 -2.9859237e-05 9.722389e-05 -0.00017040243
0002f0 43 2b a1 38 5b 74 40 b9 37 51 86 37 bc d9 c5 38
       7.6851364e-05 -0.00018353893 1.6011863e-05 9.434248e-05
000300 60 ae 91 37 0d 8a 66 38 af e3 a1 b8 58 4a 5a 38
       1.7366547e-05 5.4964843e-05 -7.7194876e-05 5.204449e-05
000310 95 06 be b7 10 34 56 b8 9d fd da 3a ba 53 00 b6
       -2.265283e-05 -5.1070063e-05 0.0016707663 -1.9122222e-06
000320 77 78 11 ba 7d b8 44 37 ef 60 c1 37 f4 4e 8b b7
       -0.00055492617 1.1725465e-05 2.3052531e-05 -1.6606857e-05
000330 8f 35 1e 39 43 ca 52 38 68 30 35 37 fc b7 06 37
       0.00015088006 5.0256273e-05 1.0799711e-05 8.02986e-06
000340 24 6d 4b 39 cf 33 04 3a df c0 9e ba 90 2c 4f ba
       0.00019400247 0.00050431205 -0.0012111923 -0.00079030637
000350 17 56 47 ba 54 f8 f4 39 da 50 66 bc 52 87 1f b6
       -0.0007604076 0.00046724326 -0.014057362 -2.3771613e-06
000360 0a c7 28 3c cf 43 81 38 8f c0 af ba 7f 85 28 3a
       0.010301361 6.16383e-05 -0.0013408827 0.0006428584
000370 e8 36 70 ba bb dd b1 3a ed 17 fd b9 c8 0a 5a ba
       -0.0009163455 0.0013570109 -0.00048273747 -0.00083176466
000380 22 78 7c b7 b6 3d 23 38 58 ac 48 b9 b4 19 56 b9
       -1.5048341e-05 3.89197e-05 -0.0001913769 -0.00020418206
000390 41 58 3d b7 30 2a 14 39 13 b4 6b bb 05 f4 26 37
       -1.1285826e-05 0.00014130096 -0.0035965487 9.951186e-06
0003a0 eb 19 bb 3a cc 1a 04 b8 ca e6 09 b9 c9 f0 3b 38
       0.0014274692 -3.149621e-05 -0.00013151314 4.4808523e-05
0003b0 8e ea 38 b9 b4 7d 75 39 72 4c 06 b9 c8 00 30 b7
       -0.00017634986 0.00023411849 -0.00012807714 -1.0490599e-05
0003c0 98 66 df b7 f2 9f 23 b8 6d ae fb 38 e0 b9 87 b7
       -2.6631446e-05 -3.901119e-05 0.00012001102 -1.6179809e-05
0003d0 a2 b9 3a b7 30 fb fc b7 13 e3 62 3a 47 cc ae 35
       -1.1129685e-05 -3.015771e-05 0.00086550525 1.3023463e-06
0003e0 ab 2e 94 ba ce 71 82 b7 ae f8 1b 39 70 48 d2 b8
       -0.0011305412 -1.5550202e-05 0.00014874592 -0.00010027073
0003f0 ef c5 0c 39 1f 03 ad b8 e5 0d d0 38 3f cb 0e 37
       0.00013425176 -8.249864e-05 9.920801e-05 8.5111815e-06

user_bias f4 [3000, 1]
000000 79 ff 3c bf 76 99 2b 3f 8b 7e 7a 3e e6 da 11 bf
       -0.7382732 0.6703104 0.24462335 -0.5697464
000010 9f 5f 00 3e 00 00 00 00 84 48 eb be db 66 c3 be
       0.12536477 0.0 -0.45953763 -0.3816441
000020 3e cd 71 bd f4 e9 8e be 69 5d d8 3b 02 0e 1b 3e
       -0.059033625 -0.27912867 0.0066029322 0.15142062
000030 8c 34 3b 3e c9 77 46 3e 00 00 00 00 3b bf 59 3c
       0.18281764 0.19381632 0.0 0.013290222
000040 fc 94 32 3f 80 cd 37 3e eb 17 63 be 11 12 e2 3e
       0.6975858 0.17949486 -0.22177093 0.4415441
000050 f2 72 cf bd 00 00 00 00 cf ae 14 bf 22 6b 4b 3f
       -0.10129346 0.0 -0.58079237 0.79460347
000060 f9 2d 44 be 35 11 9c be 1e 64 9f be df fe de be
       -0.19158162 -0.30481878 -0.3113107 -0.43553826
000070 3c 3d 97 3e 49 63 59 bf 00 00 00 00 00 00 00 00
       0.29538906 -0.8491712 0.0 0.0
000080 ac d6 ae be a4 0f 34 bf f5 49 19 3f a9 c6 8a be
       -0.34148157 -0.70336366 0.59878474 -0.2710469
000090 56 10 dc 3d 87 85 39 3e de 1b c9 3d 00 00 00 00
       0.10745303 0.18117343 0.09819768 0.0
0000a0 c0 8a 14 be 01 e1 8b be 00 00 00 00 00 00 00 00
       -0.14506054 -0.27320102 0.0 0.0
0000b0 4e fc 05 3e 11 52 eb be 00 00 00 00 cd 5f 3e be
       0.13084528 -0.4596105 0.0 -0.18591233
0000c0 2d 14 7e 3d 61 8e 99 be ae 1f 04 3f b9 20 50 be
       0.06203096 -0.2999144 0.5161084 -0.20324983
0000d0 85 ee 57 3d d4 1a 45 bd 14 f6 0f 3e 00 00 00 00
       0.052717704 -0.04812129 0.14058715 0.0
0000e0 00 00 00 00 95 37 8d 3e c1 56 1d 3d c2 67 d1 3e
       0.0 0.27581468 0.038412813 0.40899473
0000f0 a5 5c e0 bd 34 49 60 bd 8c 33 cd 3e 00 00 00 00
       -0.109551705 -0.054757312 0.4007839 0.0
000100 5e 00 74 bd ba 04 84 3e 5a d0 a7 3d b8 0f 2b 3e
       -0.059570663 0.25784856 0.08194037 0.16705215
000110 3f 1c ed 3b a7 c5 87 3e 8d 74 23 bf 00 00 00 00
       0.007236033 0.26517984 -0.6384972 0.0
000120 67 68 8a be 8f 1f f5 3e 00 00 00 00 eb 48 1c bd
       -0.27032778 0.4787564 0.0 -0.038155477
000130 00 00 00 00 83 bf 14 be f6 38 c4 be 00 00 00 00
       0.0 -0.14526181 -0.38324708 0.0
000140 3d ac 21 be 00 00 00 00 0a 22 1f 3d 00 00 00 00
       -0.1578836 0.0 0.03885082 0.0
000150 87 2a de 3d 00 00 00 00 15 0e c8 bd 00 00 00 00
       0.10847955 0.0 -0.09768311 0.0
000160 00 00 00 00 d6 01 2e bf 00 00 00 00 00 00 00 00
       0.0 -0.6797155 0.0 0.0
000170 cb 27 45 3e e5 bf ed 3e b0 c4 9a be 5a c8 bc 3d
       0.19253461 0.46435466 -0.30228186 0.092179015
000180 1e 4b 13 3e 49 50 30 3d ad 07 d6 3e d1 b0 2b bf
       0.14384124 0.043045316 0.4180273 -0.67066675
000190 d6 19 ce be 49 fd fe be 00 00 00 00 00 00 00 00
       -0.40254086 -0.49802616 0.0 0.0
0001a0 c0 49 41 3f c8 f7 91 3e 66 86 c5 bd f0 bf d1 3e
       0.7550316 0.28509355 -0.09644775 0.4096675
0001b0 23 0f 0e be 3d 08 06 be 84 28 e1 bc 7d af 8f bd
       -0.13872962 -0.1308908 -0.02748514 -0.070158936
0001c0 f3 9d bb 3d 00 00 00 00 78 b0 9b 3e 4d 19 fe bd
       0.09160986 0.0 0.30408072 -0.124071695
0001d0 32 d5 5c bc 05 ef c2 3d c0 d3 c2 3e e3 97 03 3f
       -0.013478564 0.095182456 0.38052177 0.51403636
0001e0 d2 56 1a 3c b4 63 97 3d 00 00 00 00 78 28 0a 3f
       0.009420114 0.07392064 0.0 0.53968
0001f0 12 88 b2 3d 00 00 00 00 72 55 f9 3c 7e aa 21 bd
       0.087173596 0.0 0.030436251 -0.039469235
000200 94 30 de 3e b2 f4 9c 3e 34 be 24 be 00 00 00 00
       0.43396437 0.30655438 -0.16088182 0.0
000210 00 00 00 00 73 70 1f 3e 7b 89 b9 3e 8b c9 24 bd
       0.0 0.1557024 0.36237702 -0.04023127
000220 6f e4 7b 3e aa 75 1b 3f 6f 45 1c 3e 1b d7 b9 be
       0.24598859 0.60726416 0.15260862 -0.36296925
000230 00 00 00 00 19 0e 58 3d 43 7a e9 be 8f f2 45 3f
       0.0 0.05274782 -0.4560109 0.7732324
000240 5f 3b 3b bd 7c 0a 43 3f b7 e6 48 be 3c 78 0e 3e
       -0.045710918 0.7618787 -0.1961926 0.13913053
000250 2c 70 30 3e 00 00 00 00 13 a7 f7 3c 5c dc 4b b9
       0.1723029 0.0 0.030231034 -0.00019441679
000260 d5 7e 67 bd 00 00 00 00 5c 59 02 3f b0 2c 29 3e
       -0.05651744 0.0 0.509176 0.16520953
000270 26 da 16 be be 32 52 3d 77 8e a0 3d 00 00 00 00
       -0.14731655 0.051317923 0.07839673 0.0
000280 00 00 00 00 e1 5a b9 3e 1f 2e 85 3e 4a 91 16 3e
       0.0 0.36202148 0.2601175 0.14703861
000290 f4 1e d3 3d 00 00 00 00 88 2a 61 bc a0 8e b1 be
       0.10308638 0.0 -0.01374305 -0.34679127
0002a0 02 1d 18 bf cc f3 1a bc 00 00 00 00 6c 82 f3 3a
       -0.5941926 -0.00945754 0.0 0.0018578297
0002b0 16 97 a2 3d 2d bf 57 3e ad 8e 12 be 58 b5 a1 be
       0.079389736 0.21069022 -0.14312239 -0.31583667
0002c0 8b d0 7b 3e 93 f1 e3 3e 52 38 bc be 5d a7 3f 3e
       0.24591272 0.44520244 -0.3676172 0.18716188
0002d0 e0 8a d0 3d 57 cb 39 3e d8 2d 7c 3c f7 37 85 bd
       0.10182738 0.18143974 0.015391789 -0.06504815
0002e0 57 ad 61 3e 1c da a0 be a9 1b 06 3e 00 00 00 00
       0.2203878 -0.31416404 0.13096489 0.0
0002f0 85 9f 75 3f d9 8a 27 bd 6d 56 88 be 00 b3 5d 3e
       0.9594653 -0.0409039 -0.26628438 0.21650314
000300 28 fc a6 3d d1 de db 3e 31 20 6f 3e db 51 a6 be
       0.08153564 0.42943433 0.23352124 -0.32484326
000310 f6 23 83 3e 00 00 00 00 62 8d 3c be bf 8c a9 bd
       0.25613374 0.0 -0.18413308 -0.08278798
000320 00 00 00 00 c3 e5 1a 3b 01 93 4d 3e 00 00 00 00
       0.0 0.0023635484 0.20075609 0.0
000330 00 00 00 00 00 00 00 00 73 75 00 bf 5b 1c 81 3c
       0.0 0.0 -0.50179213 0.015760591
000340 0f dd 8c 3f 81 55 c1 be 4a 57 26 3e 00 00 00 00
       1.1004962 -0.37760547 0.16244236 0.0
000350 8b 79 31 3e 9f aa 90 3e 1a 41 d3 bd ca ae 7a 3e
       0.17331521 0.28255174 -0.103151515 0.24480739
000360 97 34 e5 3d 00 00 00 00 00 00 00 00 1e 4f 56 3e
       0.11191671 0.0 0.0 0.20928618
000370 8f 51 46 3e 46 61 f6 3e e8 40 11 bf 89 1f 20 3e
       0.1936705 0.4812109 -0.56739664 0.1563703
000380 54 67 fa be 04 19 7c bd 15 57 c7 bc 02 57 44 be
       -0.48906958 -0.061547294 -0.024333516 -0.19173816
000390 00 00 00 00 49 60 81 be 81 8d 82 3e 37 16 a8 3e
       0.0 -0.25268772 0.25498584 0.3282945
0003a0 00 00 00 00 00 00 00 00 10 6f 3e 3e 13 9f d5 3e
       0.0 0.0 0.18597054 0.41722926
0003b0 c9 cc f8 be 00 00 00 00 a1 36 22 3f f9 54 bc bc
       -0.4859374 0.0 0.6336461 -0.022989737
0003c0 fc 35 b1 3e 00 00 00 00 bd 55 7d 3e 3d f5 5c be
       0.346115 0.0 0.24739738 -0.21577926
0003d0 ad 2a 39 3f 72 92 a8 3e 2b 50 49 3f fe 5a 83 3e
       0.72330743 0.3292423 0.7863795 0.2565536
0003e0 00 00 00 00 94 67 d0 3e 03 59 81 bd 6d cd 9d be
       0.0 0.40704024 -0.06315806 -0.3082079
0003f0 fa be 5b be 1b f1 49 3e 16 f6 bb 3e 43 58 90 be
       -0.2145957 0.1972088 0.36711186 -0.28192338

item_bias f4 [3000, 1]
000000 61 06 35 3f 59 85 cc 3d 83 3f 44 3c 4e f8 5e bf
       0.7071286 0.099863715 0.011978033 -0.8709763
000010 80 fe 2c bf 0b 4d be 3e ed 77 f2 be 63 82 11 3e
       -0.67575836 0.37168154 -0.4735712 0.14209895
000020 4b cf 07 bf 91 bb 25 be 03 d4 fb be 4d 22 a0 be
       -0.5305068 -0.16184832 -0.4918519 -0.3127617
000030 d4 54 aa be 0d d9 83 3e b3 a9 1f 3e 33 b6 06 be
       -0.33267844 0.25751534 0.15592079 -0.13155441
000040 d5 01 87 3e 8a 19 f3 be 8a 3b 64 3f 65 5e 01 3f
       0.26368585 -0.47480422 0.8915335 0.5053466
000050 98 79 61 3e 1a 53 34 3e a0 06 eb 3e d3 bd 4a 3f
       0.2201904 0.17609826 0.45903492 0.791959
000060 e7 c3 21 3f e4 46 b7 be 28 b8 24 3e dc 1c 0c 3f
       0.6318955 -0.35796273 0.16085875 0.54731536
000070 58 0d bb 3e 15 b4 7a 3b 55 46 69 be 58 6c c1 be
       0.36533618 0.003825431 -0.22780736 -0.37777972
000080 c5 22 ce 3e c0 f8 c4 3d c4 af 5e 3e 31 e5 dc 3e
       0.40260902 0.09617758 0.21746737 0.4314361
000090 4d c4 c2 3e 3e 9a 2d bf e4 d5 76 be e1 73 71 3e
       0.3804039 -0.6781348 -0.2410503 0.2357936
0000a0 f9 fa 69 3f 31 0f 8a 3f c2 10 3d 3f b5 26 32 3f
       0.9139858 1.0785886 0.73853695 0.6959031
0000b0 cf cf 78 3f af 44 b2 bd 89 01 e5 be 6e 77 bb be
       0.9719209 -0.087045066 -0.44727734 -0.36614555
0000c0 30 db 96 3e 16 c1 4f 3d b7 42 fe 3e c5 48 f6 be
       0.29464102 0.05072125 0.49660274 -0.48102394
0000d0 b2 32 46 3f 34 89 72 3f 6b 09 51 3f 4f 5f 27 3e
       0.77421105 0.94740605 0.81654996 0.16344951
0000e0 76 41 a5 3d 14 23 15 3f 56 69 01 bf de 04 fa 3e
       0.08069126 0.5825665 -0.50551355 0.48831838
0000f0 52 38 06 be 87 63 9b 3d 3d 72 a1 3e 32 c8 09 3f
       -0.13107422 0.07587343 0.3153247 0.538211
000100 bf 3d 97 3e eb c3 db be a0 08 40 3e 74 09 24 3f
       0.29539296 -0.4292291 0.1875329 0.64076924
000110 02 97 0a bf c0 21 b0 be 46 76 14 bf af f3 4e 3f
       -0.5413667 -0.3440075 -0.5799297 0.8084058
000120 89 23 0c be 08 59 15 be 6d 0b a5 be 75 2e 62 3e
       -0.1368543 -0.14584744 -0.3223528 0.22088034
000130 73 5a 49 3f af 64 1a 3c d4 a5 3d be e1 1e 8d be
       0.7865364 0.009423419 -0.1852029 -0.2756262
000140 a3 25 16 bf be ff 45 bf dc ce de 3d 54 36 dd bd
       -0.5865118 -0.77343357 0.10879299 -0.10801378
000150 0f ac 12 bf 64 a2 f2 3c 05 f7 1e 3e 34 f5 c6 3e
       -0.5729379 0.02961845 0.15523918 0.3885895
000160 7f 74 e4 3e 48 b1 91 3e 9e 8d 25 be c3 8f 7b 3e
       0.4462013 0.28455567 -0.16167304 0.2456656
000170 06 91 80 3e 51 2a c5 be 7b f1 9d be ca c0 d6 3e
       0.25110644 -0.38508847 -0.30848297 0.4194396
000180 81 20 10 3e 6d 01 3c be d2 69 ac bc 57 1c f6 3e
       0.140749 -0.18359919 -0.021046553 0.48068497
000190 07 34 b6 be 2b 1e d1 bd 1e be 28 bd 9c 12 a1 be
       -0.3558657 -0.10210832 -0.041196935 -0.3145951
0001a0 b7 82 ba 3c ec 6d 0d 3f 98 98 7d 3e b1 b0 28 3e
       0.022767408 0.5524585 0.24765241 0.16473652
0001b0 e2 3a 14 bf cf e0 e3 3e 00 5f ba be 15 53 8a 3c
       -0.5790235 0.44507453 -0.36400604 0.01688532
0001c0 fd ee 88 be b9 a0 73 be 5a e9 09 3f 0e da f2 be
       -0.26744834 -0.2379178 0.5387169 -0.47431988
0001d0 21 78 4c 3f 70 96 01 3f 07 e5 81 3e ff 15 56 be
       0.798708 0.50620174 0.25370046 -0.20906828
0001e0 1d 25 14 3f 81 0e 0e be 14 39 0c 3f 2b 84 48 3d
       0.5786913 -0.1387272 0.54774594 0.04895417
0001f0 4e 39 33 3c 2b 7f 5a 3e 73 a4 04 be 37 60 4c be
       0.0109389555 0.21337573 -0.12953357 -0.19958578
000200 c8 66 6d 3f 66 fd a6 be 18 26 ce be 5f a4 37 3c
       0.92734957 -0.32615203 -0.40263438 0.011208623
000210 0a 4e 08 bf 8c 3d e5 3e e2 c7 25 3e 5d af c6 3e
       -0.5324408 0.4477352 0.1618953 0.38805667
000220 a7 8e ef be 67 64 11 3f 30 a5 69 3e a7 ba 87 3f
       -0.46788523 0.56793827 0.2281692 1.0603837
000230 a4 3a 0b bf 75 de 55 3e 6b 0a 09 3f c2 b1 20 3f
       -0.54386353 0.20885642 0.5353152 0.62771237
000240 6b ef 85 be a8 c6 17 3e a3 ae 18 3e b0 3f 0c bc
       -0.26159224 0.14821875 0.14910369 -0.008560106
000250 10 0e ac be 5b 2d 1b 3f 64 17 ad 3e c1 c2 50 3e
       -0.3360448 0.6061608 0.33806908 0.20386793
000260 f4 4b b3 be 92 2a 75 3e 6f c3 36 bf a2 78 a7 3e
       -0.35018885 0.2394202 -0.7139196 0.32709223
000270 79 74 80 3e e2 20 b4 3e 82 89 07 3f cc b5 88 3e
       0.25088862 0.35181338 0.52944195 0.267012
000280 90 ce d1 3e 09 be 34 3f ca 60 ed be 3d 36 3b 3f
       0.40977907 0.7060247 -0.46362907 0.73129636
000290 5d ff 7d 3e 85 ec e4 bd e7 7e f6 3e 44 42 a2 3d
       0.24804445 -0.11177925 0.48143694 0.079227954
0002a0 c6 df 2a be ae 07 1c 3d 16 b8 b2 be 36 9a 90 3e
       -0.16686925 0.03809326 -0.3490607 0.28242654
0002b0 20 28 2f be c5 a8 a7 3d 6f 7a 03 3b 6f 2b 73 3d
       -0.1710515 0.08186487 0.002006199 0.059367593
0002c0 60 66 cf be a3 95 cd be 15 87 38 bf 2e 2a 4e 3e
       -0.40507793 -0.40153226 -0.7208112 0.20133278
0002d0 4c 3f 47 be 95 5f 02 3f 4b 22 c1 be bc 8a 40 3e
       -0.1945774 0.50927097 -0.37721476 0.18802923
0002e0 7f c8 bf bd 37 66 33 be fc 1c 1f 3d ed 5f fd 3d
       -0.093644135 -0.1751946 0.038846 0.12371812
0002f0 de 82 0b be e8 b6 22 3e 5e b1 ac be f8 4c e4 be
       -0.1362414 0.15890086 -0.3372907 -0.44589972
000300 e0 fb d0 be ff fc 5d be 7c 19 03 3f 10 54 d5 3e
       -0.40817165 -0.21678542 0.5121076 0.41665697
000310 5e 8b 4c be 77 b2 6e bd fc 37 c4 3d 48 47 db 3e
       -0.1997504 -0.058275666 0.09580991 0.4282782
000320 03 e1 7c 3e 2b b9 2b 3f b1 19 7a be 00 fe 47 be
       0.2469521 0.6707942 -0.24423863 -0.19530487
000330 98 56 95 be db b1 92 be e6 8b 93 bd 9f cf 1f 3f
       -0.29167628 -0.28651318 -0.07204418 0.6242618
000340 e6 cc c3 3e f7 af 36 be b7 db a8 3e 51 f9 26 bf
       0.38242263 -0.17840563 0.3298013 -0.65224177
000350 65 36 52 be 1e e0 bf 3e 9d 7d 1e 3e 4f ea 56 3f
       -0.20528562 0.37475675 0.15477605 0.83951277
000360 c9 35 dd be d0 1b 8f 3f 04 54 ea 3d f9 12 ca be
       -0.43205097 1.1180363 0.11441806 -0.394676
000370 6f 89 e9 3e 42 25 14 bf 3e a8 fd be e5 fe 92 3e
       0.45612666 -0.5786935 -0.4954242 0.28710094
000380 93 46 bd bd 7e 08 76 be 20 51 41 bd 35 69 18 be
       -0.092419766 -0.24026677 -0.047196507 -0.14883883
000390 bb 82 8e 3e c6 3b 94 3e 77 eb 47 be 0c 55 c7 bd
       0.27834114 0.28951854 -0.19523416 -0.09733018
0003a0 81 4a 80 be 60 77 dd bd fb 90 4a 3e f2 6d 2c be
       -0.25056842 -0.108137846 0.19781868 -0.16838816
0003b0 07 c1 d5 be c7 3d cc 3e cd 01 b9 3d 4d 52 a8 3d
       -0.4174883 0.39890882 0.090335466 0.08218823
0003c0 04 6e 9d 3e fe cf fc 3e 2b 7e 57 3f e2 24 d6 3e
       0.30747998 0.49377435 0.8417689 0.41825014
0003d0 fc de 0b bf d0 21 bf be f1 e1 27 be 59 41 95 be
       -0.5463712 -0.37330484 -0.16394784 -0.2915142
0003e0 9a 45 bc be f6 78 b0 3e d0 d9 20 3f fa d3 61 3e
       -0.36771852 0.34467286 0.62832355 0.22053519
0003f0 98 d8 bc 3e cd fb 11 3f f8 a3 7b bd dd 7d 04 bf
       0.36883998 0.5702484 -0.06143567 -0.5175455

embedding_model.user_embedding f4 [3000, 16]
000000 33 af 70 ba 09 c0 68 3a f4 fa 0c 38 25 17 c1 ba
       -0.000918138 0.0008878713 3.361232e-05 -0.0014731629
000010 0a 07 47 b9 fa a6 8f b9 b7 6e 36 3b f3 2a 9a 37
       -0.00018980741 -0.00027399493 0.0027836987 1.837823e-05
000020 8d 23 c2 3b d3 ab 86 ba ab 40 71 ba 35 e5 aa 3a
       0.005924648 -0.0010274596 -0.00092030567 0.001303828
000030 98 78 05 ba ff 6e ca 39 5c 3f 87 39 bf 78 da b8
       -0.0005091517 0.0003861114 0.00025796413 -0.00010417541
000040 7c 98 1c 39 e5 a9 2d b9 df 12 98 37 e4 ab 63 39
       0.00014934124 -0.00016561856 1.81286e-05 0.00021712441
000050 a8 b0 22 38 1a a6 c4 b7 35 5b a4 b9 99 c9 79 b7
       3.8788334e-05 -2.3442368e-05 -0.00031348472 -1.4888495e-05
000060 76 f8 43 ba 7f 28 52 35 7a 3c 2c 39 5e 41 2c b8
       -0.0007475683 7.8290026e-07 0.00016425728 -4.1068874e-05
000070 f9 f6 5f 38 5e 98 1f b9 f7 fd 8f ba 2e 99 d9 37
       5.3397354e-05 -0.00015220183 -0.0010985722 2.5939746e-05
000080 9e ad d7 39 a2 7d b0 39 e6 32 bc b6 34 3e 11 ba
       0.0004113735 0.0003366294 -5.608762e-06 -0.000554058
000090 a9 df ba b6 a3 84 2c b8 72 13 93 3a 51 9e 04 38
       -5.5692694e-06 -4.1131523e-05 0.0011221005 3.1618696e-05
0000a0 24 d6 06 bc 7d 1f e7 39 db dd 30 38 40 b9 80 39
       -0.008229766 0.00044083214 4.216829e-05 0.00024552085
0000b0 03 0c 5d b9 2e fc 22 39 c0 39 e7 bb 33 ff d7 b7
       -0.00021080677 0.00015543468 -0.007056445 -2.5748834e-05
0000c0 90 61 50 b8 8f db 8f 39 bf 8d 8d 33 65 ce 90 38
       -4.9681927e-05 0.0002743867 6.5916076e-08 6.904899e-05
0000d0 09 84 fb b7 0e 83 86 38 7e 19 d2 b9 71 8b 18 37
       -2.9983015e-05 6.414029e-05 -0.00040073314 9.092372e-06
0000e0 82 55 f6 b8 47 31 52 b7 74 30 9f 38 5e 18 6a 39
       -0.00011746121 -1.2528449e-05 7.590736e-05 0.00022325056
0000f0 dc f1 36 b8 f6 11 fd 38 6d ba 4c 3a 5e 5b c8 b7
       -4.361743e-05 0.000120673256 0.0007809762 -2.3884404e-05
000100 63 19 8e 39 8d 33 58 b8 15 96 e3 b4 e6 9e ad 38
       0.00027103265 -5.1546423e-05 -4.2391244e-07 8.27888e-05
000110 fc 30 17 37 15 5d 44 b6 1f 68 21 3b 35 82 38 b6
       9.011706e-06 -2.9260457e-06 0.0024628711 -2.7493927e-06
000120 a9 6e 33 3a 6b c2 56 39 95 5c a9 37 a9 b2 1d b9
       0.0006844798 0.00020481057 2.0189482e-05 -0.00015039243
000130 7c 95 e6 b8 d9 8f 74 38 6f 19 de 3a 22 ae fe 37
       -0.00010995098 5.8308102e-05 0.0016944836 3.0360246e-05
000140 26 b9 ec af f8 00 78 a7 d5 cb 8c af bc e0 2a b2
       -4.3059706e-10 -3.4417439e-15 -2.5610683e-10 -9.946401e-09
000150 4c 48 8d 37 c9 b0 c2 b4 c4 13 12 b5 92 77 c4 ac
       1.6842176e-05 -3.6263944e-07 -5.4418e-07 -5.58393e-12
000160 87 18 39 39 28 d4 28 30 cb 86 a0 b2 f7 00 a3 b1
       0.00017652112 6.1419536e-10 -1.8687748e-08 -4.744034e-09
000170 75 1f 30 b8 e1 8c 03 b3 36 5f 05 ac ac b5 65 2b
       -4.1990967e-05 -3.0628943e-08 -1.895329e-12 8.1609264e-13
000180 09 d1 35 b8 38 4c 79 b9 38 2f 9a 33 0b a7 d1 38
       -4.3348442e-05 -0.00023774884 7.179773e-08 9.997011e-05
000190 83 02 3d b7 1c cf 9d b8 37 68 63 38 ec 64 9b 38
       -1.1265863e-05 -7.5249205e-05 5.4218075e-05 7.409774e-05
0001a0 fb 58 0f 39 cc 82 1a 38 36 1b 24 b9 ec 9c 98 38
       0.0001367069 3.6838275e-05 -0.00015650396 7.277154e-05
0001b0 58 04 64 b9 aa d4 81 37 e7 8d 97 b8 33 60 5a 36
       -0.00021745393 1.5477028e-05 -7.2266725e-05 3.2540527e-06
0001c0 74 8e d1 b7 49 02 26 b8 33 b0 d6 b5 73 51 b7 39
       -2.4981076e-05 -3.9579612e-05 -1.5995523e-06 0.00034965164
0001d0 48 9d 05 39 c4 98 80 37 6b ae 8a ba 1b ac 04 38
       0.0001274246 1.5329926e-05 -0.0010580545 3.1631538e-05
0001e0 44 e9 6d ba fa 1d e7 b8 ee c8 c9 b7 dd b7 97 b9
       -0.0009075592 -0.00011020522 -2.4054632e-05 -0.00028937953
0001f0 99 90 82 b8 41 84 0b b9 a3 76 74 ba e1 dd 03 39
       -6.2258165e-05 -0.00013305341 -0.00093255396 0.0001257579
000200 12 28 b5 b9 2f d3 9e 39 7a f4 26 b6 02 b1 55 b7
       -0.00034552865 0.00030293452 -2.4878232e-06 -1.2737002e-05
000210 bc 57 84 36 df 9f c3 b6 c2 c1 ce b8 38 96 14 36
       3.94412e-06 -5.8300643e-06 -9.858936e-05 2.2141157e-06
000220 4d 0f 61 37 dd fc af b9 46 ce 8c b9 75 5d e6 b7
       1.3414608e-05 -0.00033567 -0.00026856567 -2.7461656e-05
000230 a4 93 7c 38 3f 9b 01 b9 e2 d7 9b b8 71 31 3c b7
       6.0218983e-05 -0.00012360232 -7.431187e-05 -1.1217185e-05
000240 d3 70 37 3a 2d 02 73 39 64 a4 91 b8 fe 3f 00 b9
       0.0006997708 0.00023175096 -6.944759e-05 -0.0001223087
000250 86 dc 43 b8 aa de d8 37 ac 7a 60 bb fb 1a 96 b7
       -4.6697e-05 2.5852893e-05 -0.0034252806 -1.7893957e-05
000260 23 44 05 bb 38 2b 3a 3a 4f 34 7c b9 01 a3 0f b8
       -0.0020334802 0.0007101777 -0.00024052079 -3.4245666e-05
000270 22 a4 3d b8 aa cf 67 38 86 b6 04 bb 16 70 6e b8
       -4.5213972e-05 5.5268094e-05 -0.0020250394 -5.684801e-05
000280 ce 1f eb 39 b2 3f 1c 3a 78 de 87 37 a9 9d 9f ba
       0.0004484639 0.0005960419 1.619685e-05 -0.0012177724
000290 41 52 1a b8 72 ea 50 b9 08 2f 8b 3b 0f 84 fb 36
       -3.6793066e-05 -0.00019923763 0.00424755 7.4957566e-06
0002a0 a0 ef 67 3b 57 a7 19 3a f8 87 f2 b9 f9 39 4d 3a
       0.003539063 0.00058614224 -0.00046259142 0.0007828768
0002b0 9d 9a aa 39 60 da 02 3a 74 47 e8 3b 48 00 12 b9
       0.00032540123 0.0004991647 0.007088596 -0.0001392375
0002c0 88 9f 18 ba cc d0 61 39 fe af 8c 38 6d 3f ea b9
       -0.0005822112 0.00021535455 6.708501e-05 -0.00044679214
0002d0 01 4c e3 37 57 95 a2 b8 30 ca bd 3a c0 cf 94 37
       2.70959e-05 -7.752579e-05 0.0014479812 1.7739716e-05
0002e0 ab 68 a4 3a b0 06 a0 b9 78 9b 76 b9 9f 57 ae 39
       0.00125434 -0.0003052256 -0.00023518305 0.0003325315
0002f0 d2 51 06 39 78 a5 34 39 d2 b5 cb 39 e4 79 82 b8
       0.00012809716 0.0001722778 0.00038854644 -6.221587e-05
000300 a0 d6 72 ba 8a c3 69 b8 1d 67 56 37 d0 53 b8 39
       -0.0009263549 -5.573364e-05 1.2779402e-05 0.0003515766
000310 bc 9a d6 38 e8 8d d1 b8 f4 10 25 bb bb da e7 b5
       0.00010233137 -9.992329e-05 -0.0025187107 -1.72745e-06
000320 ed 98 c3 ba 8d f5 5c ba 71 bf 55 b7 74 95 d5 36
       -0.0014922895 -0.0008428924 -1.2740363e-05 6.3652933e-06
000330 63 89 da 38 37 01 6f b9 64 58 e2 ba 83 8e 6d b5
       0.0001042064 -0.00022793269 -0.0017268774 -8.849676e-07
000340 09 1f 2e 37 b6 5d 78 b8 b8 5e 08 b7 37 4c 44 39
       1.0378434e-05 -5.9215083e-05 -8.128285e-06 0.00018720409
000350 64 dc a4 37 23 74 09 38 e7 00 ac b9 68 e4 c9 b6
       1.965295e-05 3.2771506e-05 -0.0003280707 -6.016857e-06
000360 d5 78 7e b9 35 ba d9 b8 0a d9 e9 38 fb af bd b8
       -0.00024268341 -0.0001038205 0.000111507325 -9.045001e-05
000370 92 cc 0e b9 60 26 a0 b8 b0 02 ce 3a 18 bd ce 37
       -0.00013618384 -7.6365424e-05 0.0015717354 2.4645167e-05
000380 eb 00 4c 36 74 48 61 39 5a 92 bd b1 41 42 e7 38
       3.0398903e-06 0.00021484663 -5.517262e-09 0.00011027279
000390 42 0b 81 2a 19 5e 81 b0 00 91 34 38 ac 7c 6a 38
       2.2922815e-13 -9.41273e-10 4.3050386e-05 5.5906057e-05
0003a0 26 aa e3 b3 c9 21 27 b8 6a 01 60 b3 60 0e 80 34
       -1.0601461e-07 -3.9847368e-05 -5.215535e-08 2.3852317e-07
0003b0 f5 2d 6d b7 e9 00 d0 37 d2 7a a7 b2 fe a6 47 30
       -1.4137001e-05 2.4795956e-05 -1.9497211e-08 7.263309e-10
0003c0 6d 5a 17 b8 78 f5 ce b7 35 3f 84 b7 53 ee ca 36
       -3.608542e-05 -2.4671419e-05 -1.576506e-05 6.0478137e-06
0003d0 47 cd a7 38 19 43 2b 38 99 1c df bb eb f9 63 b5
       8.0014164e-05 4.0832067e-05 -0.006808829 -8.492777e-07
0003e0 f5 93 9d 3c 95 41 53 36 3b 54 c2 b7 6d 4a c5 b8
       0.01923559 3.1479624e-06 -2.3165825e-05 -9.407555e-05
0003f0 64 80 88 b8 79 b2 22 38 b6 e5 28 3c 2d 38 c3 b7
       -6.5089e-05 3.8790025e-05 0.010308674 -2.327197e-05

embedding_model.item_embedding f4 [3000, 16]
000000 c5 aa 4f b8 af 94 9d 38 c7 07 16 b9 ca 59 c8 b8
       -4.9511687e-05 7.514038e-05 -0.00014308012 -9.553468e-05
000010 5b 10 a1 b7 d8 1d 88 37 70 ed bc 3a 49 f3 3e 35
       -1.9200312e-05 1.622636e-05 0.0014414024 7.113454e-07
000020 9d 49 e8 38 7c 3b 28 b8 a4 62 28 b9 7c 16 d6 b7
       0.000110763336 -4.010972e-05 -0.00016058475 -2.5521258e-05
000030 c4 7b 19 b9 13 d9 84 b8 5a 4f 04 b8 1f dd 6f 38
       -0.00014637323 -6.334684e-05 -3.1545154e-05 5.7187975e-05
000040 1f b3 97 38 30 9e 9e 39 e9 78 38 ba 01 f3 0e b9
       7.233605e-05 0.00030253967 -0.000703706 -0.00013632701
000050 19 73 a9 b9 41 f8 93 39 33 7d 45 3b 8f 73 ef 36
       -0.00032319946 0.00028222988 0.003013444 7.136208e-06
000060 c7 8e 7f bb 6c 62 cd 38 2f ef 29 ba f1 5d a5 39
       -0.0038995014 9.793494e-05 -0.00064824795 0.00031541244
000070 d5 30 12 ba 5a a8 26 3a 34 49 90 b9 5e 3b f5 b9
       -0.00055767345 0.0006357484 -0.0002752036 -0.00046774274
000080 9d ce 8f 38 36 89 37 38 70 17 52 b9 39 96 92 38
       6.857256e-05 4.3758388e-05 -0.00020035892 6.989804e-05
000090 6e 19 8d 38 90 bb 37 38 ea 24 b6 b9 1a 44 54 b5
       6.7281406e-05 4.380528e-05 -0.00034741248 -7.9075255e-07
0000a0 b8 df d4 39 41 0f b3 37 ab 7d 81 b9 51 c6 56 39
       0.00040602474 2.1345566e-05 -0.00024698427 0.00020482509
0000b0 5c 17 73 b9 9e dd cd b8 8e d2 95 37 e1 dd f2 b7
       -0.00023182988 -9.816441e-05 1.7860231e-05 -2.8951968e-05
0000c0 3f 0c e0 b7 6e a1 fa b8 47 27 35 39 4e cc 03 39
       -2.6708583e-05 -0.000119509976 0.00017276137 0.00012569243
0000d0 c9 76 20 39 35 47 b6 b8 a1 26 34 3b e5 39 ce 35
       0.0001530304 -8.6916996e-05 0.0027488845 1.5365046e-06
0000e0 5c 3d 31 ba 61 ce 1a b7 be 93 93 39 66 56 3a b7
       -0.00067611574 -9.227167e-06 0.000281481 -1.110658e-05
0000f0 e8 9e 5b 39 e3 16 1c b9 57 38 c6 b8 f6 69 36 39
       0.00020944665 -0.00014885845 -9.45187e-05 0.00017396346
000100 6e 3c 8e b7 6d cb 1d b9 59 c1 6a 39 24 5a 87 38
       -1.6955859e-05 -0.00015048469 0.00022388007 6.4540916e-05
000110 88 91 eb 38 e8 5f a3 b8 84 82 c8 ba 70 b3 cb 36
       0.000112327805 -7.7903096e-05 -0.0015297686 6.0707607e-06
000120 c1 77 3d b9 f7 6c 9f b7 06 79 29 39 c7 b5 25 b8
       -0.00018069056 -1.9005018e-05 0.0001616218 -3.950836e-05
000130 ea 33 98 38 02 15 39 b9 e7 4b 8c 38 4d 08 ec 37
       7.2575946e-05 -0.00017650801 6.689858e-05 2.8137258e-05
000140 37 4e ca 36 54 a7 90 38 ad ae 46 39 b3 02 61 38
       6.0291745e-06 6.8976224e-05 0.00018947823 5.3646694e-05
000150 40 da 10 37 9a 1d 66 b8 f4 5b 3a bc f6 36 7e b7
       8.633884e-06 -5.486384e-05 -0.011374462 -1.5152376e-05
000160 1e 1c ef 3b da e9 73 37 e1 9f d9 b7 ed a1 86 b7
       0.007297053 1.45383765e-05 -2.5942865e-05 -1.6049447e-05
000170 36 41 b3 37 40 4d 42 b9 fd 15 cd 37 1f 70 28 38
       2.1368829e-05 -0.0001853006 2.4448143e-05 4.0158742e-05
000180 b6 65 0b bc 91 02 cc bb 7b 62 ad 3b 8c e2 d9 3b
       -0.0085081365 -0.006225892 0.005291281 0.006649321
000190 25 b4 f4 ba 61 b1 11 bb c8 4c dc 3d b9 e7 03 ba
       -0.001866941 -0.002223097 0.10756832 -0.0005031783
0001a0 81 49 c2 bd 8d f4 04 bc 30 0a 0e 3c 97 67 19 bc
       -0.09486676 -0.008114946 0.008669421 -0.009363077
0001b0 3e 88 ea 3b b6 b1 8c 3b 69 18 8d 3b a5 95 01 bb
       0.0071573546 0.0042936457 0.0043058884 -0.0019773033
0001c0 84 a9 5f b8 2f ee 8f b8 d1 90 9c 39 4a 1f 83 37
       -5.3325217e-05 -6.8631365e-05 0.00029862535 1.5630987e-05
0001d0 73 78 57 39 08 fa 15 b8 a6 35 d0 3b be de 14 37
       0.00020548869 -3.5757228e-05 0.0063540516 8.873349e-06
0001e0 32 6c 3c bb 1e 50 be b8 11 4e 5f 39 aa a8 4e b9
       -0.0028751013 -9.074829e-05 0.00021296019 -0.00019708523
0001f0 fa 5d f0 38 6e 05 89 b9 4f 61 51 39 f8 c8 69 39
       0.00011461596 -0.00026134722 0.00019968043 0.00022295478
000200 59 a6 18 37 22 46 f4 38 a7 9b 75 38 d5 95 9a 38
       9.098637e-06 0.0001164789 5.8557514e-05 7.3712006e-05
000210 cb ab 08 b9 10 f7 c1 38 05 d1 ef 3a 6c ff bc 36
       -0.00013033969 9.248976e-05 0.0018296546 5.6325716e-06
000220 38 3c 4d ba a1 74 ea 36 e6 d9 f5 b8 59 6c 35 b8
       -0.00078291027 6.987321e-06 -0.00011723097 -4.325467e-05
000230 ff 46 63 b9 ea 4f c1 38 fa ac f5 38 d2 97 ef b7
       -0.00021674855 9.217842e-05 0.0001171473 -2.8561717e-05
000240 7b 32 24 b6 9a 60 04 b9 9b 63 82 b8 5c 03 26 b8
       -2.4467288e-06 -0.00012624488 -6.217436e-05 -3.9580613e-05
000250 54 89 b7 38 03 22 c2 b7 7d 9b 43 39 a4 a8 0c b7
       8.751699e-05 -2.314244e-05 0.00018654573 -8.383915e-06
000260 ca d2 1c b7 30 8a 96 b6 72 dd 26 39 40 a5 8a b8
       -9.347403e-06 -4.4864355e-06 0.00015913488 -6.611133e-05
000270 10 b6 71 b8 c9 47 42 b8 d7 58 21 b7 31 cf b1 37
       -5.7628436e-05 -4.632006e-05 -9.617032e-06 2.1196525e-05
000280 42 f7 b5 37 88 1f 9b b8 2a 33 4b 38 87 a8 e1 b7
       2.169202e-05 -7.396849e-05 4.844662e-05 -2.6900567e-05
000290 48 2a 2b 38 4f 36 e1 b7 a4 6f c2 b9 f9 44 2b 33
       4.0808955e-05 -2.684738e-05 -0.00037085742 3.987677e-08
0002a0 e0 69 b6 38 a6 ad fc b7 b5 26 98 37 fd 25 bf b7
       8.698157e-05 -3.0121602e-05 1.8137836e-05 -2.2786664e-05
0002b0 c3 85 e0 38 73 39 2c b8 e1 a8 dc 36 59 48 0d 37
       0.000107060674 -4.10615e-05 6.576171e-06 8.4211e-06
0002c0 11 53 70 b8 14 48 1e b8 7a 11 ba 38 a0 39 c4 b7
       -5.729782e-05 -3.7737263e-05 8.8724264e-05 -2.3391854e-05
0002d0 bf 49 48 39 ea aa 67 b8 75 03 aa ba 16 4d 58 b6
       0.00019100959 -5.5233868e-05 -0.0012971001 -3.2231378e-06
0002e0 b6 36 bf 39 39 7a fa b7 ae e4 cb 38 0e ae 32 b9
       0.00036471122 -2.9859237e-05 9.722389e-05 -0.00017040243
0002f0 43 2b a1 38 5b 74 40 b9 37 51 86 37 bc d9 c5 38
       7.6851364e-05 -0.00018353893 1.6011863e-05 9.434248e-05
000300 60 ae 91 37 0d 8a 66 38 af e3 a1 b8 58 4a 5a 38
       1.7366547e-05 5.4964843e-05 -7.7194876e-05 5.204449e-05
000310 95 06 be b7 10 34 56 b8 9d fd da 3a ba 53 00 b6
       -2.265283e-05 -5.1070063e-05 0.0016707663 -1.9122222e-06
000320 77 78 11 ba 7d b8 44 37 ef 60 c1 37 f4 4e 8b b7
       -0.00055492617 1.1725465e-05 2.3052531e-05 -1.6606857e-05
000330 8f 35 1e 39 43 ca 52 38 68 30 35 37 fc b7 06 37
       0.00015088006 5.0256273e-05 1.0799711e-05 8.02986e-06
000340 24 6d 4b 39 cf 33 04 3a df c0 9e ba 90 2c 4f ba
       0.00019400247 0.00050431205 -0.0012111923 -0.00079030637
000350 17 56 47 ba 54 f8 f4 39 da 50 66 bc 52 87 1f b6
       -0.0007604076 0.00046724326 -0.014057362 -2.3771613e-06
000360 0a c7 28 3c cf 43 81 38 8f c0 af ba 7f 85 28 3a
       0.010301361 6.16383e-05 -0.0013408827 0.0006428584
000370 e8 36 70 ba bb dd b1 3a ed 17 fd b9 c8 0a 5a ba
       -0.0009163455 0.0013570109 -0.00048273747 -0.00083176466
000380 22 78 7c b7 b6 3d 23 38 58 ac 48 b9 b4 19 56 b9
       -1.5048341e-05 3.89197e-05 -0.0001913769 -0.00020418206
000390 41 58 3d b7 30 2a 14 39 13 b4 6b bb 05 f4 26 37
       -1.1285826e-05 0.00014130096 -0.0035965487 9.951186e-06
0003a0 eb 19 bb 3a cc 1a 04 b8 ca e6 09 b9 c9 f0 3b 38
       0.0014274692 -3.149621e-05 -0.00013151314 4.4808523e-05
0003b0 8e ea 38 b9 b4 7d 75 39 72 4c 06 b9 c8 00 30 b7
       -0.00017634986 0.00023411849 -0.00012807714 -1.0490599e-05
0003c0 98 66 df b7 f2 9f 23 b8 6d ae fb 38 e0 b9 87 b7
       -2.6631446e-05 -3.901119e-05 0.00012001102 -1.6179809e-05
0003d0 a2 b9 3a b7 30 fb fc b7 13 e3 62 3a 47 cc ae 35
       -1.1129685e-05 -3.015771e-05 0.00086550525 1.3023463e-06
0003e0 ab 2e 94 ba ce 71 82 b7 ae f8 1b 39 70 48 d2 b8
       -0.0011305412 -1.5550202e-05 0.00014874592 -0.00010027073
0003f0 ef c5 0c 39 1f 03 ad b8 e5 0d d0 38 3f cb 0e 37
       0.00013425176 -8.249864e-05 9.920801e-05 8.5111815e-06
